trained_dqn_model.pth (torch, 51692 bytes, 6 tensors)

fc1.weight f4 [64, 24]
0	0x3e39f90c	0.1816141
1	0x3b075200	0.002064824
2	0xbdb5dc24	-0.08879879
3	0xbe39c690	-0.18142152
4	0x3cdc7970	0.026913375
5	0xbdf1340a	-0.11777504
6	0xbd7d5450	-0.061847985
7	0x3dc50ef8	0.09621996
8	0xbded6641	-0.11591769
9	0x3d8a8aac	0.06764731
10	0xbd9a9f84	-0.075499564
11	0xbae30080	-0.0017318875
12	0xbd962438	-0.07331127
13	0xbde551b3	-0.111972235
14	0x3d88c6d0	0.066785455
15	0x3e196f0c	0.14983767
16	0x3df17790	0.11790383
17	0xbdebb36e	-0.11508833
18	0xbe23d584	-0.15999418
19	0xbe3758aa	-0.17904916
20	0xbd395b5c	-0.045253143
21	0x3d00e5e0	0.031469226
22	0x3cbecd88	0.023291364
23	0xbd9fd666	-0.07804565
24	0x3cfbe4d0	0.030748755
25	0x3ce81f80	0.028335333
26	0xbdf8f526	-0.12156133
27	0xbe40855d	-0.18800874
28	0x3e042f80	0.12908745
29	0x3e1ade6e	0.15123913
30	0xbd1329e4	-0.035928622
31	0xbdf2cecd	-0.1185585
32	0x3deb724c	0.1149641
33	0xbe256bef	-0.16154455
34	0x3db7a4b4	0.089669615
35	0xbe370aac	-0.17875165
36	0xbdea4263	-0.114384435
37	0xbdd31128	-0.10306007
38	0xbe11834c	-0.14210242
39	0x3e02a7ea	0.12759367
40	0xb9f5f800	-0.00046914816
41	0x3e41f0d6	0.18939528
42	0x3e29f694	0.16597968
43	0xbe2302d6	-0.1591905
44	0xbda8056d	-0.0820416
45	0x3e09cd9c	0.1345734
46	0x3da44d88	0.080226004
47	0x3c7ec0a0	0.015548855
48	0xbdc577c1	-0.09641982
49	0xbaf93c80	-0.0019015223
50	0x3d94cf0c	0.072660536
51	0xbdf3a67c	-0.11896989
52	0x3d8ed658	0.069744766
53	0xbdeb4f3f	-0.11489724
54	0xbc7d5cc0	-0.015464008
55	0x3d3cf558	0.046132416
56	0x3e0ec368	0.13941729
57	0xbcd90bf8	-0.026494965
58	0xbe45f01b	-0.19329874
59	0x3ddc3a80	0.107533455
60	0x3e0a5876	0.13510308
61	0x3e166c3a	0.14689723
62	0xbdab9178	-0.08377355
63	0xbe448ece	-0.191951
64	0xbd956a54	-0.07295671
65	0xbd50056c	-0.05078642
66	0x3ca9d3c8	0.020730868
67	0xbd935a7c	-0.07194993
68	0xbd6000fc	-0.05468844
69	0xbd119938	-0.03554651
70	0xbddfe2b8	-0.10931915
71	0xbe059830	-0.13046336
72	0xbe29f1d9	-0.16596164
73	0x3e3d263c	0.18471617
74	0x3e25a2e2	0.16175416
75	0xbe174d3a	-0.14775553
76	0xbddfff3f	-0.10937356
77	0x3e0e9b1a	0.13926354
78	0x3dbf4ffc	0.09341428
79	0xbe2786b0	-0.16359973
80	0x3cf27980	0.029598951
81	0x3e01a42c	0.12660283
82	0x3e4fbf98	0.20287931
83	0x3e2342c4	0.15943438
84	0x3dd6c7a8	0.104873
85	0x3d49aee8	0.04923907
86	0xbda9ec4c	-0.08297023
87	0xbd8cfb48	-0.068838656
88	0x3e439eca	0.19103542
89	0xbe1e480e	-0.15457174
90	0x3d6f6048	0.05844143
91	0x3e2a8c4c	0.16655082
92	0xbd175acc	-0.036951825
93	0x3c9a6950	0.018849045
94	0xbd42dc10	-0.04757315
95	0xbe142ea8	-0.14470923
96	0x3e074380	0.13209343
97	0x3debf044	0.115204364
98	0xbdee7e29	-0.11645157
99	0xbd69db70	-0.057094038
100	0x3d7ae550	0.061253846
101	0xbe014192	-0.1262267
102	0x3d0b9ee8	0.03408709
103	0x3e474df6	0.19463333
104	0xbdb22286	-0.08697991
105	0xbc15e390	-0.009148493
106	0xbe1394cc	-0.1441223
107	0xbd91c21c	-0.071171016
108	0x3cccd6b8	0.02500473
109	0xbdf6dfd9	-0.12054414
110	0xbdb1f556	-0.08689372
111	0xbde1159c	-0.1099045
112	0xbe2d93a4	-0.16950852
113	0x3e388ade	0.18021724
114	0x3c7e71a0	0.01553002
115	0xbe3a12de	-0.1817126
116	0x3dc15410	0.09439862
117	0xbc23edd0	-0.010005429
118	0xbe0959e6	-0.134132
119	0x3e4580d4	0.19287425
120	0x3c1fe1c0	0.009758413
121	0xbe4e45a4	-0.20143753
122	0x3da60548	0.08106476
123	0x3de437bc	0.11143443
124	0x3d8aa878	0.06770414
125	0xbcec5938	-0.028851137
126	0x3e17bdea	0.1481854
127	0x3e28b71c	0.164761
128	0xbb9e3da0	-0.0048291236
129	0x3d99b3d4	0.075050026
130	0xbdf30575	-0.11866275
131	0x3d5a7390	0.053332865
132	0xbd35a030	-0.04434222
133	0x3e117d5e	0.1420798
134	0x3de97c48	0.11400658
135	0xbdaaac13	-0.08333602
136	0xbd08c3d4	-0.03338988
137	0x3d8b2688	0.06794459
138	0x3d95b9a4	0.07310799
139	0x3c2ef360	0.010678142
140	0x3da93194	0.082614094
141	0x3e07998e	0.1324217
142	0x3e4f2af0	0.20231223
143	0x3df8e04c	0.12152156
144	0xbde722c2	-0.112859264
145	0x3d74d650	0.059774697
146	0x3e0e092c	0.13870686
147	0xbdfc5c50	-0.12322295
148	0x3e1cc0bc	0.15307897
149	0x3e3b927a	0.18317595
150	0xbda907b4	-0.082534224
151	0xbe4ae69d	-0.19814534
152	0x3e130c10	0.1436007
153	0x3d0339d4	0.03203757
154	0x3c93b9b8	0.018032894
155	0x3c924558	0.017855331
156	0xbe4a94d7	-0.1978334
157	0xbdb4ddb0	-0.08831346
158	0x3deb9cf4	0.11504546
159	0xbdaf7956	-0.08568065
160	0xbb208700	-0.0024494529
161	0x3e4a6fbc	0.19769186
162	0x3ce12538	0.027483568
163	0x3e1d555c	0.15364593
164	0xbe0a0b10	-0.13480783
165	0x3d836ee0	0.06417632
166	0xbd77e738	-0.06052324
167	0xbd9868d0	-0.074418664
168	0xbd175978	-0.03695056
169	0x3e31d4c0	0.17366314
170	0x3d57c8c8	0.052681714
171	0xbbde51e0	-0.0067846626
172	0xbe186605	-0.14882667
173	0x3e216804	0.15762335
174	0x3e2ebde6	0.17064628
175	0xbe42dcce	-0.19029543
176	0xbbd48180	-0.006485164
177	0xbe1884fd	-0.14894481
178	0x3d0f0488	0.03491643
179	0x3e09918a	0.13434425
180	0x3d4da498	0.050205797
181	0xbd72f868	-0.05931893
182	0xbd2bb144	-0.0419171
183	0x3d4572c8	0.048205167
184	0x3de1e1ac	0.110293716
185	0xbd8e8164	-0.06958273
186	0xbe4a20c9	-0.19739069
187	0xbda34830	-0.07972753
188	0xbe298d50	-0.16557813
189	0x3dd3dc40	0.10344744
190	0xbdfb6b10	-0.1227628
191	0x3e18ebbc	0.14933676
192	0xbd8e4f7e	-0.06948756
193	0x3d742f50	0.059615433
194	0x3dcd5138	0.10025257
195	0xbcf7d170	-0.030251235
196	0x3e307248	0.17231095
197	0xbdcf50fe	-0.1012287
198	0x3e1da0ba	0.15393344
199	0x3e26001a	0.16210976
200	0x3da370b0	0.07980478
201	0xbd9ea15e	-0.07745622
202	0x3e3ba9f4	0.1832655
203	0x3d641d40	0.055691957
204	0xbdd4f628	-0.10398513
205	0xbd89e77e	-0.06733607
206	0x3d76c0a8	0.060242325
207	0xbe19c43a	-0.1501626
208	0x3e0c77d2	0.13717583
209	0xba24a500	-0.00062806904
210	0x3e401570	0.18758178
211	0xbdd5231a	-0.10407086
212	0xbb91de20	-0.004451528
213	0xbe188b6e	-0.14896938
214	0x3cd625b8	0.026141033
215	0xbe0939ac	-0.13400906
216	0xbd0a73c8	-0.033801824
217	0x3e0646dc	0.13112968
218	0xbd92b6ae	-0.0716375
219	0x3dbb6df4	0.09151831
220	0x3dc1887c	0.094498605
221	0x3da197e8	0.07890302
222	0xbd914af2	-0.07094373
223	0x3de8d6f0	0.11369121
224	0xbc59eea0	-0.013301522
225	0xbe1d9a32	-0.15390852
226	0x3d9f6f9c	0.0778496
227	0x3e404faa	0.1878039
228	0xbe3878c1	-0.18014814
229	0xbcb262c0	-0.021775603
230	0x3e027fd6	0.12744078
231	0xbdebb10f	-0.115083806
232	0x3d8706c4	0.06593087
233	0x3d1ab770	0.037772596
234	0x3c82fd38	0.015989885
235	0x3cc99618	0.024607703
236	0x3e1dca12	0.15409115
237	0x3d93bac8	0.0721336
238	0x3d2f63f0	0.042819917
239	0x3e3c153c	0.18367475
240	0xbd46df30	-0.048552692
241	0xbc80cc78	-0.015722498
242	0x3e3bae52	0.18328217
243	0x3dde758c	0.10862264
244	0xbe278f55	-0.1636327
245	0x3e406bfc	0.18791193
246	0x3e243608	0.16036236
247	0xbcf95620	-0.030436575
248	0xbdb39e4f	-0.08770429
249	0xbd1232fc	-0.035693154
250	0x3daeb738	0.0853104
251	0xbd5b0294	-0.053469256
252	0xbe4ae07a	-0.19812194
253	0xbde1d725	-0.11027364
254	0x3e4209ac	0.18949002
255	0x3e344fa0	0.176085

fc1.bias f4 [64]
0	0x3e22dc0a	0.1590425
1	0xbe15b755	-0.14620717
2	0xbe089ad8	-0.13340318
3	0xbe4f0012	-0.2021487
4	0x3c42d9f0	0.011892781
5	0x3dfb3654	0.12266222
6	0x3e28f9e0	0.1650157
7	0xbdb0f08a	-0.08639629
8	0xbdd98dd5	-0.106227554
9	0x3d3be54c	0.04587297
10	0x3e2ca81e	0.16861007
11	0x3ded1328	0.115759194
12	0x3e40b656	0.18819556
13	0x3d9daa9c	0.07698557
14	0x3e41ce7e	0.18926427
15	0x3e2b211c	0.16711849
16	0xbe0dc986	-0.13846406
17	0x3cd9e5e0	0.02659887
18	0x3e06b688	0.13155568
19	0xbe249d08	-0.16075528
20	0xbe33aa71	-0.17545487
21	0xbdd82a74	-0.10554972
22	0x3e001de6	0.12511405
23	0x3dd5eb78	0.10445303
24	0x3e2836d4	0.16427165
25	0x3e0588f8	0.1304053
26	0xbe3fba28	-0.18723357
27	0x3e406ed0	0.18792272
28	0x3d557778	0.052115887
29	0x3d805dd0	0.06267893
30	0xbdd98de6	-0.10622768
31	0x3db5d254	0.088780075
32	0xbdac9f11	-0.08428777
33	0x3e2d05dc	0.16896766
34	0x3e027572	0.12740114
35	0x3d958ebc	0.07302615
36	0xbcd8bb40	-0.026456475
37	0xbe454250	-0.19263577
38	0xbd4006e8	-0.046881586
39	0x3d3a12cc	0.045428082
40	0xbe068ee0	-0.1314044
41	0xbe2668c8	-0.16250908
42	0x3e1962c6	0.14979085
43	0x3c729810	0.014806762
44	0x3df385e0	0.11890769
45	0x3de67018	0.11251849
46	0x3dcb7d00	0.09935951
47	0x3e1d025a	0.15332928
48	0xbdf01274	-0.1172227
49	0x3d408980	0.04700613
50	0xbdd41631	-0.10355795
51	0xbd9a5bf2	-0.075370684
52	0x3dc97290	0.09836304
53	0x3da70798	0.08155745
54	0xbe0adbe2	-0.13560441
55	0xbd0541b8	-0.032533377
56	0x3db46338	0.08807987
57	0xbe133255	-0.14374669
58	0xbdc57ad8	-0.09642571
59	0x3d8e779c	0.069564074
60	0xbd6e0508	-0.058110267
61	0xbbc71e20	-0.006076589
62	0xbe213e56	-0.15746436
63	0xbd7b6a8c	-0.061380908

fc2.weight f4 [64, 64]
0	0xbd7dbc74	-0.0619473
1	0x3cc475c0	0.023981929
2	0x3dae13a0	0.08499837
3	0xbd275804	-0.040855423
4	0xbcdede30	-0.027205557
5	0xbd485a50	-0.048914254
6	0x3d383e6c	0.044981405
7	0xbdd34a60	-0.1031692
8	0xbd5809f4	-0.052743867
9	0xbda07bfe	-0.0783615
10	0x3d355594	0.044271067
11	0x3c975cf8	0.018476948
12	0xbd696570	-0.056981504
13	0xbdac2212	-0.08404936
14	0x3d9f754e	0.07786046
15	0x3dd84694	0.10560337
16	0xbddac4fc	-0.10682103
17	0xbdc9fa6a	-0.09862216
18	0xbdd7e9c6	-0.105426356
19	0x3be72b60	0.0070547312
20	0x3d8f0aac	0.069844574
21	0xbd6816a0	-0.056662202
22	0xbdae1744	-0.08500531
23	0xbdca6518	-0.09882563
24	0x3de25a32	0.1105236
25	0x3d970c02	0.07375337
26	0xbd8dd882	-0.06926061
27	0x3d9b40e4	0.07580736
28	0xbdc8efd6	-0.0981137
29	0xbdb0544e	-0.0860983
30	0x3cfe1d50	0.031019837
31	0xbb8785a0	-0.0041358024
32	0xbd8c3758	-0.068464935
33	0x3df62cac	0.12020239
34	0x3d5c1b40	0.053736925
35	0x3dd8eec6	0.105924174
36	0xbdac6128	-0.084169686
37	0x3dac88ec	0.08424553
38	0xbcbbc4f0	-0.022921056
39	0x3c7d2a70	0.015452012
40	0x3df80e30	0.12112081
41	0xbdf9ea0c	-0.12202844
42	0xbda7555a	-0.081705764
43	0xbbb23860	-0.0054388493
44	0x3d4a4f64	0.04939212
45	0xbdbd36f6	-0.092389986
46	0xbd740128	-0.059571415
47	0x3ba13920	0.00492014
48	0xbb5df640	-0.00338687
49	0xbbf1f580	-0.007384002
50	0xbd82812a	-0.06372292
51	0x3d77e5f4	0.060522035
52	0xbc2f6ec0	-0.010707557
53	0xbd53c7d0	-0.051704228
54	0xbdbce8f6	-0.09224121
55	0x3d911e8a	0.07085903
56	0xbd9343fe	-0.07190703
57	0xbdafa716	-0.08576791
58	0x3d8bdf38	0.06829685
59	0xbd97d300	-0.07413292
60	0x3db93ed4	0.09045187
61	0xbcdb5c90	-0.026777536
62	0x3def82be	0.11694859
63	0x3db0c4f0	0.08631313
64	0x3d0fc274	0.035097554
65	0xb8e68000	-0.000109910965
66	0x3d6d86b0	0.057989776
67	0xbdaa822c	-0.083256096
68	0x3dcae3ba	0.09906717
69	0x3d83ce6a	0.06435855
70	0x3c026d40	0.007960618
71	0xbd72dd84	-0.059293285
72	0xbde8f3de	-0.11374639
73	0xbd9b23a6	-0.07575159
74	0xbd5b8d60	-0.053601623
75	0x3d8ed976	0.06975071
76	0xbc038230	-0.008026645
77	0xbdff74d0	-0.12473452
78	0x3de8dbf2	0.11370076
79	0xbd7c7258	-0.061632484
80	0x3cc7fcc0	0.024412513
81	0x3d6124bc	0.054966673
82	0xbc682fd0	-0.014171556
83	0x3db8b606	0.09019093
84	0xbdd76792	-0.10517801
85	0x3cf8f298	0.030389115
86	0x3d075f4c	0.033049867
87	0xbdbb1714	-0.09135261
88	0x3de3a6fa	0.111158326
89	0xbc69fe80	-0.014281869
90	0x3dce7572	0.10080995
91	0x3db68daa	0.08913739
92	0xbce4c0a8	-0.027923897
93	0xbd848160	-0.06469989
94	0x3de2af04	0.11068538
95	0xbdf8a55e	-0.12140916
96	0x3dc67170	0.09689605
97	0xbd775a50	-0.060388863
98	0x3d51431c	0.05108939
99	0x3d4fdea4	0.050749436
100	0xbd89c81e	-0.067276224
101	0xbb789f40	-0.0037936717
102	0xbdbecf18	-0.09316844
103	0xbdecb006	-0.11557011
104	0xbdbd27ec	-0.0923613
105	0x3d97d392	0.07413401
106	0x3c03d5d0	0.008046582
107	0x3c587fa0	0.013214022
108	0x3cd76870	0.026294917
109	0x3dff2fd4	0.12460294
110	0xbd6ead64	-0.058270827
111	0xbd47f15c	-0.048814163
112	0xbd3bf228	-0.045885235
113	0x3da3580e	0.079757795
114	0x3db026a6	0.086011216
115	0xbdc587ae	-0.096450195
116	0x3d736874	0.059425786
117	0xbd288290	-0.04114014
118	0xbd8272f8	-0.06369585
119	0x3daab768	0.08335763
120	0x3b976b40	0.0046209395
121	0x3df3b9b4	0.119006544
122	0xbd704fbc	-0.05866979
123	0x3de6e78c	0.11274633
124	0x3caeeff0	0.021354645
125	0xbb4e9480	-0.0031521618
126	0xb9ce2e00	-0.00039325655
127	0x3deabcd0	0.114617944
128	0x3d0f9c80	0.03506136
129	0xbd7a0264	-0.061037436
130	0x3dfc929e	0.123326525
131	0x3d961150	0.07327521
132	0x3dc2bc86	0.09508614
133	0xbdca35e4	-0.0987356
134	0x3da8fcfe	0.082513794
135	0x3df6a590	0.12043297
136	0x3d2b12b0	0.04176587
137	0x3df76902	0.120805755
138	0xbd94e92c	-0.072710365
139	0x3d4fd058	0.0507358
140	0x3d895714	0.06706062
141	0xbda4bc24	-0.080436975
142	0x3c46de90	0.012138024
143	0x3d4cf2a0	0.050036073
144	0x3af41500	0.0018621981
145	0x3d2f19a4	0.042749062
146	0xbdb3b32e	-0.0877441
147	0x3dc63752	0.0967852
148	0x3d39d484	0.045368686
149	0xbc936218	-0.01799111
150	0x3c998650	0.018740803
151	0x3cfaae78	0.030600771
152	0x3de4fc5e	0.11180948
153	0x3d8ef680	0.0698061
154	0xbd85b3dc	-0.06528446
155	0x3db7ea02	0.0898018
156	0xbdff8340	-0.12476206
157	0x3c355150	0.01106675
158	0xbda337d8	-0.07969636
159	0x3c3bb270	0.011456117
160	0x3d56a7e0	0.05240619
161	0xbd3ac05c	-0.045593604
162	0x3cf72330	0.030168146
163	0x3d2ccd74	0.042188123
164	0xbc990c58	-0.018682644
165	0xbdae146c	-0.08499989
166	0xbd9f1bf0	-0.077690005
167	0xbde4b2cc	-0.11166915
168	0x3d941dba	0.072322324
169	0xbdbede70	-0.0931977
170	0x3dd32262	0.103092924
171	0x3dc6f28a	0.097142294
172	0x3df0798e	0.11741935
173	0x3b53afc0	0.00323008
174	0x3d54dd18	0.051968664
175	0x3cf04af8	0.029332623
176	0x3ddbb0ee	0.10727106
177	0x3d36233c	0.044467196
178	0x3de5ef8e	0.11227332
179	0xbdc14a46	-0.09437995
180	0x3c892d08	0.016745105
181	0xbd84b65a	-0.06480093
182	0x3cb9cb40	0.022679925
183	0xbd6ec288	-0.05829099
184	0x3d2e7d9c	0.04260026
185	0xbaacc600	-0.0013181567
186	0x3c48ee50	0.012263849
187	0xba03ee00	-0.0005032718
188	0x3d1759ec	0.03695099
189	0x3dcdf5fa	0.10056682
190	0xbdce2690	-0.10065949
191	0xb930e400	-0.00016869605
192	0x3dbabe3a	0.09118314
193	0x3d628900	0.055306435
194	0xbdb5e5c4	-0.08881715
195	0xbdb23b5e	-0.0870273
196	0x3d99a918	0.07502955
197	0xbcec7050	-0.028862149
198	0x3d3f1b94	0.04665716
199	0x3d927774	0.0715169
200	0xbde35a98	-0.11101264
201	0xbd6a7d7c	-0.057248577
202	0xbd6d5494	-0.057941988
203	0xbc285720	-0.0102746785
204	0x3c963c88	0.01833941
205	0xbd37efe8	-0.044906527
206	0xbba851a0	-0.0051366836
207	0x3d0d8224	0.03454794
208	0x3da3adc8	0.079921305
209	0x3dabc160	0.08386493
210	0x3b8ee100	0.004360318
211	0x3b9b5bc0	0.004741162
212	0xbdf71106	-0.12063794
213	0xbd83e282	-0.06439687
214	0xbda3e8ba	-0.080033734
215	0xbd587544	-0.05284621
216	0x3d04da60	0.03243482
217	0xbdfe4602	-0.12415697
218	0xbd6bddfc	-0.057584748
219	0x3cdfbd88	0.027312055
220	0xbdf2108a	-0.11819561
221	0xbd154fa8	-0.03645292
222	0x3d12751c	0.035756215
223	0xbcb66580	-0.022265196
224	0x3dd82808	0.1055451
225	0x3d35ada0	0.044355035
226	0xbda6a8b6	-0.08137648
227	0x3d3ed528	0.04659
228	0xbd5224f8	-0.051304787
229	0x3a388200	0.00070384145
230	0x3db8407c	0.089966744
231	0xbdaf269e	-0.085522875
232	0xbdecff1c	-0.11572096
233	0x3cea2f28	0.028586939
234	0x3d42e9e4	0.047586337
235	0xbde276ca	-0.110578135
236	0xbd53ceec	-0.051711008
237	0xbd23c504	-0.03998281
238	0x3da24d54	0.079249054
239	0x3ddf4840	0.109024525
240	0xbcf98ea8	-0.030463532
241	0x3c631530	0.013860032
242	0xbd806e0e	-0.06270991
243	0x3d85b826	0.06529264
244	0xbc959400	-0.018259048
245	0x3d9c7d50	0.07641089
246	0xbdc3c810	-0.09559643
247	0x3c9caba0	0.019124806
248	0xbdf709d6	-0.12062423
249	0xbc9297d0	-0.017894655
250	0xbbbc4e60	-0.0057466477
251	0x3dfeba12	0.12437834
252	0x3dcc6f06	0.099821135
253	0x3cc0efa0	0.023551762
254	0x3dce7db6	0.10082571
255	0x3d6a1cc4	0.05715634

fc2.bias f4 [64]
0	0x3ce190f0	0.027534932
1	0xbd27e2b0	-0.04098767
2	0x3bc1da00	0.00591588
3	0x3d836a54	0.06416765
4	0x3d3c30a0	0.04594481
5	0xbdd09c0e	-0.10186015
6	0x3cdcc068	0.026947215
7	0x3df22bc6	0.11824755
8	0xbdf2c610	-0.11854184
9	0x3bdc0320	0.0067142397
10	0x3d584c44	0.052807108
11	0x3df6320c	0.120212644
12	0x3d7e182c	0.06203477
13	0xbdf33074	-0.11874476
14	0xbda8f796	-0.08250348
15	0x3c0bf200	0.008541584
16	0xbce4d870	-0.027935237
17	0xbccb31e0	-0.024804056
18	0x3b5b1e80	0.0033434927
19	0xbdbfd3e6	-0.09366588
20	0xbdb3b156	-0.087740585
21	0x3bd482c0	0.006485313
22	0x3de10aa0	0.10988355
23	0xbd551050	-0.05201751
24	0x3d92d3ce	0.07169305
25	0x3d935a96	0.07195012
26	0x3d48067c	0.04883431
27	0xbd3e31b0	-0.046434104
28	0x3de7ead8	0.1132409
29	0xbd65a4d0	-0.05606538
30	0x3d6eb2d0	0.058275998
31	0x3d6168d4	0.055031613
32	0x3d644cc8	0.055737287
33	0xbddae8c6	-0.10688929
34	0xbd0fb750	-0.03508693
35	0x3dfd83b0	0.12378633
36	0xbd3fc578	-0.04681918
37	0xbdd2092a	-0.10255654
38	0xbd77eca4	-0.060528412
39	0xbcddedd0	-0.027090937
40	0xbdef8c3a	-0.11696668
41	0x3da08bfe	0.078392014
42	0xbdbd7dea	-0.09252532
43	0xbddec56c	-0.10877499
44	0xbdbdf98a	-0.092761114
45	0x3c10e160	0.008842796
46	0xbdd1ea64	-0.102497846
47	0x3d1e3f7c	0.038634762
48	0xbdb69d82	-0.08916761
49	0x3de9e082	0.114197746
50	0x3c5de130	0.013542458
51	0x3d9e9850	0.07743895
52	0x3c9cf5a8	0.019160107
53	0xbdef55e6	-0.11686306
54	0x3cc24208	0.023713127
55	0x3c9e9a70	0.01936075
56	0x3cb463e0	0.02202028
57	0xbd689164	-0.05677928
58	0x3db179a2	0.08665778
59	0xbdd1f54e	-0.10251866
60	0x3dcd3fa6	0.100219056
61	0x3ca9fbc8	0.020749941
62	0xbc806d08	-0.01567699
63	0x3c2eab80	0.010661006

fc3.weight f4 [100, 64]
0	0x3ca43088	0.020042673
1	0xbd9ad36c	-0.07559857
2	0x3c220620	0.009889156
3	0xbdc012e6	-0.093786046
4	0xbca4a390	-0.020097524
5	0xbd2f48f4	-0.042794183
6	0x3c2a1030	0.010379836
7	0xbd8f7718	-0.07005137
8	0x3df75ec2	0.120786205
9	0x3df41c54	0.11919466
10	0xbd2627a4	-0.040565148
11	0x3d0de910	0.034646094
12	0x3d880b4a	0.06642778
13	0x3d830f5a	0.063994125
14	0xbdd5342e	-0.10410343
15	0x3dc6e68c	0.09711942
16	0x3df39dc6	0.11895327
17	0x3debed46	0.11519866
18	0x3dee3930	0.116320014
19	0x3d23d580	0.03999853
20	0x3d0516f8	0.032492608
21	0x3bb8f160	0.0056440085
22	0x3d68f7dc	0.056877002
23	0x3da635fc	0.081157655
24	0xbc563b10	-0.013075605
25	0xbd216784	-0.03940536
26	0xbc9fd850	-0.019512326
27	0x3da700ba	0.081544355
28	0x3c97dc90	0.01853779
29	0x3cc9c1e0	0.02462858
30	0xbdba1330	-0.09085691
31	0x3d962858	0.07331914
32	0xbd8489b0	-0.06471574
33	0x3d389924	0.04506792
34	0x3dda0612	0.10645689
35	0xbddabaa6	-0.106801316
36	0xbc0fd190	-0.008777991
37	0xbda61504	-0.08109477
38	0xbc854280	-0.016267061
39	0xbb6f26c0	-0.0036491603
40	0xbd314a90	-0.043284
41	0x3d3e14dc	0.04640661
42	0xbd0d03cc	-0.03442745
43	0xbd29df9c	-0.041473016
44	0x3d7cabcc	0.061687276
45	0x3d569300	0.052386284
46	0xbd77f6d8	-0.060538143
47	0xbdb91c4e	-0.09038602
48	0xbdf977dc	-0.121810645
49	0xbcc7a5f0	-0.024371117
50	0x3ddb73aa	0.107154205
51	0x3dded8d2	0.10881199
52	0xbc9e4ce8	-0.019323781
53	0xbdf992b6	-0.12186186
54	0x3dc3c910	0.09559834
55	0xbd1d87c4	-0.038459554
56	0x3d8e2600	0.06940842
57	0x3da4c6a0	0.08045697
58	0xbc58fab0	-0.013243362
59	0x3ddbb654	0.10728136
60	0xbc1175f0	-0.008878216
61	0x3ddc7152	0.10763802
62	0x3d644b9c	0.05573617
63	0xbc3f3d50	-0.011672333
64	0x3d88efd8	0.066863716
65	0x3d8cbc48	0.06871849
66	0xbdf3ef98	-0.11910933
67	0xbc8242d0	-0.015901
68	0x3d8f43ec	0.06995377
69	0xbda46ab0	-0.080281615
70	0x3df98e4c	0.12185344
71	0x3d0930f0	0.033493936
72	0x3db0b54e	0.08628331
73	0xbdede32e	-0.11615597
74	0xbde3281a	-0.11091633
75	0xbdfff8ca	-0.124986246
76	0xbda00512	-0.07813467
77	0x3dbc3c30	0.09191167
78	0x3c1f1570	0.009709701
79	0x3c170050	0.009216383
80	0x3d375bf0	0.044765413
81	0xbcd40918	-0.025883242
82	0xbdc36558	-0.09540814
83	0x3d0e3690	0.034720004
84	0x3d5d0460	0.05395925
85	0xbc92dd78	-0.01792787
86	0x3daef55a	0.08542891
87	0x3d8dc6ce	0.069226846
88	0x3d97cd32	0.07412185
89	0xbd58b364	-0.052905455
90	0x3dc9c472	0.09851922
91	0x3d73ca4c	0.059519097
92	0xbd82f86c	-0.06395039
93	0xbc084380	-0.0083168745
94	0x3d437784	0.0477214
95	0xbaa31a00	-0.0012443662
96	0x3cc99dd0	0.024611384
97	0x3d383e14	0.044981077
98	0xbd94ac9e	-0.072594866
99	0xbdb3f8b2	-0.08787669
100	0xbdabd40a	-0.083900526
101	0xbcb13420	-0.0216313
102	0xbd686928	-0.05674091
103	0xbd9f23c4	-0.077704936
104	0x3dec845a	0.115486816
105	0xbd2687c4	-0.04065682
106	0x3dbea466	0.093087
107	0xbd207cc4	-0.039181486
108	0x3dae250e	0.08503161
109	0x3d4f67b0	0.050635993
110	0xbdd2b550	-0.10288489
111	0xbd0f191c	-0.034936056
112	0x3cafc6e8	0.02145715
113	0x3d66c474	0.056339696
114	0x3c0abbf0	0.008467659
115	0x3cb88350	0.022523552
116	0x3de0657c	0.109568566
117	0xbdc41136	-0.09573595
118	0xbd8eb4b4	-0.0696806
119	0xbdf4ead2	-0.11958851
120	0x3dc02fd0	0.093841195
121	0x3d92cc48	0.0716787
122	0xbd1d7888	-0.038445026
123	0xbc859530	-0.01630649
124	0x3d911776	0.07084553
125	0x3dd4eb94	0.103964955
126	0x3ca89858	0.020580456
127	0xbd1da4c4	-0.03848721
128	0x3deb9dd2	0.11504711
129	0xbd5d4e0c	-0.05402951
130	0x3deb22ae	0.11481224
131	0xbdf4696a	-0.11934169
132	0x3d370534	0.044682696
133	0xbdb55fa6	-0.08856134
134	0x3dbd9afe	0.09258078
135	0x3df0d482	0.11759283
136	0xbdba55b2	-0.09098376
137	0xbafa5e00	-0.00191015
138	0x3de9bee4	0.114133626
139	0xbc9a6308	-0.01884605
140	0x3d5e1030	0.054214656
141	0x3c609540	0.013707459
142	0xbd5f6998	-0.05454406
143	0xbc8bf098	-0.017082497
144	0x3c5298b0	0.012853786
145	0xbd9ae8ce	-0.07563935
146	0x3dbd6d64	0.0924938
147	0x3d6e0f50	0.058120072
148	0xbc6687b0	-0.014070436
149	0xbdbf3f6a	-0.09338267
150	0x3af7a680	0.0018894225
151	0x3d5eb070	0.054367483
152	0x3dbd2238	0.09235042
153	0x3cfcd5f8	0.030863747
154	0x3db01e4c	0.08599529
155	0xbcf26028	-0.029586866
156	0x3d92b450	0.07163298
157	0xbd7450a0	-0.059647202
158	0x3d2c0fb0	0.04200715
159	0x3c3f49e0	0.011675328
160	0xbd6a0b0c	-0.05713944
161	0x3d09a2e4	0.03360261
162	0xbd739cd8	-0.05947575
163	0x3df3ba2e	0.11900745
164	0x3daa8cb4	0.08327618
165	0x3dd3b3dc	0.1033704
166	0x3c049a80	0.008093476
167	0x3cb7f980	0.022457838
168	0xbcbe66f0	-0.023242444
169	0x3decc8ae	0.11561714
170	0xbd2b3480	-0.041798115
171	0x3c61d930	0.013784692
172	0xbd78dc84	-0.060757175
173	0x3db179da	0.086658195
174	0x3d911e6e	0.07085882
175	0x3d6b3568	0.05742398
176	0xbda4166c	-0.08012089
177	0xbdda7fce	-0.10668908
178	0x3dc43608	0.09580618
179	0x3ddc41b0	0.107547164
180	0x3dd6393e	0.10460137
181	0x3c221810	0.009893432
182	0x3d893eae	0.06701408
183	0x3cb4ab50	0.022054344
184	0x3dde0a2a	0.108417824
185	0x3da1898e	0.078875646
186	0x3d49a870	0.0492329
187	0x3c954af8	0.018224224
188	0x3d5a3690	0.05327469
189	0xbd69b19c	-0.057054147
190	0x3d0e7c04	0.03478624
191	0x3d57cec0	0.052687407
192	0x3d605c1c	0.054775342
193	0xbde36e7c	-0.111050576
194	0xbd89b40a	-0.06723793
195	0x3d857736	0.06516878
196	0xbdff07f4	-0.12452689
197	0xbdf50322	-0.11963488
198	0x3ddd069c	0.10792276
199	0xbd707dbc	-0.05871366
200	0xbccd9038	-0.025093183
201	0xbdf07b5e	-0.117422804
202	0xbdf4c572	-0.11951722
203	0xbdad1860	-0.08451915
204	0x3d96d354	0.073645264
205	0xbc24e360	-0.010063976
206	0xbd6492dc	-0.05580412
207	0xbd953cb2	-0.07286967
208	0x3d8cc7ca	0.06874044
209	0x3c95dac0	0.018292785
210	0x3da41cf6	0.08013336
211	0x3db7436c	0.089484066
212	0xbc1d3d90	-0.009597197
213	0x3c97c4d0	0.018526465
214	0x3de506c6	0.111829326
215	0xbd827534	-0.06370011
216	0xbdbc490e	-0.091936216
217	0xbdc36f94	-0.09542766
218	0xbde6bd36	-0.11266558
219	0xbdffa268	-0.124821484
220	0xbcf38d50	-0.029730469
221	0xbdb4c368	-0.08826333
222	0x3cd6d630	0.02622518
223	0xbd1b8498	-0.037968248
224	0x3d96df18	0.073667705
225	0xbd909b3a	-0.07060857
226	0xbc48c2e0	-0.012253493
227	0x3de7c514	0.113168865
228	0x3d4f5584	0.050618663
229	0x3d9f0ff0	0.07766712
230	0x3b787200	0.0037909746
231	0x3df5d2ee	0.12003122
232	0x3db21c68	0.08696824
233	0x3dcfba08	0.101429045
234	0x3bf6eac0	0.0075353086
235	0xbdb71bb4	-0.08940831
236	0x3d9a43c8	0.075324595
237	0x3d51d914	0.051232412
238	0xbc4f5a60	-0.012655824
239	0xbc174220	-0.009232074
240	0xbd77080c	-0.06031041
241	0x3d59d920	0.053185582
242	0xbdd9006a	-0.10595782
243	0xbd003954	-0.031304672
244	0x3da93e1e	0.08263801
245	0x3cd19ba0	0.025586903
246	0xbda055ee	-0.0782889
247	0x3d958f48	0.07302719
248	0xbd235f48	-0.03988579
249	0x3dd5d776	0.104414865
250	0x3d0d4368	0.03448811
251	0xba070d00	-0.00051517785
252	0xbb4f4e00	-0.0031632185
253	0x3d42702c	0.047470257
254	0xbdf1221c	-0.11774084
255	0x3dff3788	0.124617636

fc3.bias f4 [100]
0	0x3cac1a50	0.02100864
1	0x3d62e718	0.05539617
2	0xbde135f2	-0.109966174
3	0xbd46c294	-0.048525408
4	0x3de61c4a	0.112358645
5	0xbc2b3d70	-0.01045166
6	0xbd87b3c8	-0.066260874
7	0x3df1f7a0	0.11814809
8	0x3d8b838c	0.068122
9	0x3cf046d8	0.029330656
10	0x3ddfc5e4	0.109264165
11	0x3d1b2e40	0.037885904
12	0xbd93357c	-0.07187936
13	0x3cee8650	0.02911678
14	0xbdeb0402	-0.11475374
15	0xbd386d84	-0.045026317
16	0x3d9dfe44	0.07714513
17	0x3da89504	0.082315475
18	0x3dd6e60e	0.10493098
19	0x3d9f3b32	0.077749625
20	0x3dcdb302	0.10043909
21	0x3dd1480a	0.102188185
22	0xbd2c77c8	-0.04210642
23	0xbd8cfcbe	-0.06884144
24	0xbd8b25b8	-0.06794304
25	0xbde785b8	-0.11304802
26	0x3ddc0f64	0.10745123
27	0xbd6b0ccc	-0.05738525
28	0x3c9d3558	0.019190475
29	0x3d04d8dc	0.032433376
30	0xbd4960a8	-0.049164444
31	0x3d55baec	0.052180216
32	0x3d487cf4	0.04894729
33	0xbd750d6c	-0.059827253
34	0xbdf91d74	-0.12163821
35	0xbdd814de	-0.10550855
36	0x3d94ad0e	0.0725957
37	0xbdc127a4	-0.09431389
38	0x3d82578e	0.06364356
39	0xbd7fe998	-0.06247863
40	0xbd842608	-0.064525664
41	0x3d644110	0.05572611
42	0xbd0ff63c	-0.035146937
43	0xbd22b248	-0.039720803
44	0x3cd6c7a8	0.02621825
45	0xbc39c1b0	-0.011337683
46	0xbdf29ec8	-0.11846691
47	0x3dd0b4d0	0.10190737
48	0xbd9cf916	-0.07664697
49	0xbde956a6	-0.1139348
50	0xbdf559b6	-0.11980002
51	0x3db24c18	0.0870592
52	0x3dc95aae	0.09831749
53	0xbdde4e0c	-0.1085473
54	0xbd7b7160	-0.06138742
55	0x3c3eb610	0.011640087
56	0xbd0b31c8	-0.033983022
57	0xbddb0882	-0.10694982
58	0x3df782e6	0.12085514
59	0xbd1f4bc8	-0.03889063
60	0xbd39e530	-0.045384586
61	0xbd5f818c	-0.054566905
62	0xbdd16028	-0.102234185
63	0xbdc56ad2	-0.09639515
64	0x3df915d0	0.121623635
65	0x3b9223e0	0.004459843
66	0xbdfd9ace	-0.12383042
67	0x3dff7d26	0.12475042
68	0x3de43e1c	0.11144659
69	0x3d8c2946	0.0684381
70	0x3d49cf40	0.049269915
71	0xbde94fc8	-0.1139217
72	0xbdbb0306	-0.09131436
73	0x3d9f46f8	0.07777208
74	0xbd798600	-0.060918808
75	0xbd0c7f34	-0.034300998
76	0x3d5c6094	0.05380304
77	0xbd855f2e	-0.06512295
78	0xbcc408f8	-0.023930058
79	0x3d6aa644	0.05728747
80	0x3ddc35fe	0.10752486
81	0x3a52f900	0.0008047968
82	0x3b7f6400	0.0038969517
83	0x3de1dc66	0.11028366
84	0x3d69df6c	0.057097837
85	0xbd8a899a	-0.06764527
86	0xbda32760	-0.079664946
87	0x3d7fe694	0.062475756
88	0xbd3e5bc4	-0.046474233
89	0xbdcec532	-0.10096206
90	0xbdeaadac	-0.114589065
91	0xbdfaf624	-0.12253979
92	0xbd5101a8	-0.05102697
93	0xbd8e2ec8	-0.069425166
94	0x3d05764c	0.03258352
95	0x3d898944	0.067156345
96	0x3d8ae9c6	0.0678287
97	0x3d52b8c4	0.051445737
98	0x3de2cbd8	0.11074036
99	0xbdda5aaa	-0.10661824
